python/domino/utils/mcunet-5fps_vww.tflite (tflite, 635968 bytes, 46 tensors)

blocks/0/mobile_inverted_conv/depth_conv/conv/weight i1 [1, 3, 3, 16]
10 -4 -48 -1 -2 -20 9 0
-11 -31 -30 -3 3 -1 -14 0
40 -33 -62 20 -34 114 37 13
-114 -19 -98 -42 6 15 -46 14
-6 -8 -46 -1 3 -15 -5 1
0 -1 -91 11 -63 0 -4 13
-2 10 -11 6 -17 -18 -26 28
-127 127 -127 16 -29 15 10 12
-127 127 127 -127 127 127 -127 -127
-111 36 -122 127 1 -127 127 -127
29 -19 -41 10 -19 -12 48 23
-122 -11 -108 -34 127 7 -15 -66
5 -1 -45 -1 -6 -1 10 -1
-49 -25 10 -6 -8 13 -2 1
37 -9 -42 14 -11 -1 24 12
-124 -12 -24 -2 10 -42 -5 11
-9 -2 -43 -1 -1 -4 -2 0
-95 -4 -35 -6 -29 10 0 11
00000000: 0afc d0ff feec 0900 f5e1 e2fd 03ff f200
00000010: 28df c214 de72 250d 8eed 9ed6 060f d20e
00000020: faf8 d2ff 03f1 fb01 00ff a50b c100 fc0d
00000030: fe0a f506 efee e61c 817f 8110 e30f 0a0c
00000040: 817f 7f81 7f7f 8181 9124 867f 0181 7f81
00000050: 1ded d70a edf4 3017 86f5 94de 7f07 f1be
00000060: 05ff d3ff faff 0aff cfe7 0afa f80d fe01
00000070: 25f7 d60e f5ff 180c 84f4 e8fe 0ad6 fb0b
00000080: f7fe d5ff fffc fe00 a1fc ddfa e30a 000b

blocks/0/mobile_inverted_conv/point_linear/conv/weight i1 [8, 1, 1, 16]
-127 -30 -5 8 3 39 7 113
0 -9 0 12 -84 -44 -15 -3
8 20 6 -41 0 32 -28 8
0 -127 0 27 -5 45 -17 -59
6 27 32 82 -127 3 -19 -20
0 -5 0 -42 -1 3 -4 -87
127 22 31 6 -1 47 7 122
0 1 0 -24 88 -45 21 -3
9 12 78 98 -1 -4 105 -4
0 -127 0 19 -3 24 -19 52
1 -14 51 -37 -1 -45 127 -12
0 -40 0 -26 2 -51 20 -28
9 49 26 -85 -127 -1 7 20
0 -1 0 -20 -16 -4 -21 85
-8 -24 15 -10 0 124 123 -28
0 49 0 -41 3 127 25 7
00000000: 81e2 fb08 0327 0771 00f7 000c acd4 f1fd
00000010: 0814 06d7 0020 e408 0081 001b fb2d efc5
00000020: 061b 2052 8103 edec 00fb 00d6 ff03 fca9
00000030: 7f16 1f06 ff2f 077a 0001 00e8 58d3 15fd
00000040: 090c 4e62 fffc 69fc 0081 0013 fd18 ed34
00000050: 01f2 33db ffd3 7ff4 00d8 00e6 02cd 14e4
00000060: 0931 1aab 81ff 0714 00ff 00ec f0fc eb55
00000070: f8e8 0ff6 007c 7be4 0031 00d7 037f 1907

blocks/1/mobile_inverted_conv/depth_conv/conv/weight i1 [1, 3, 3, 48]
18 24 -28 -25 -30 13 24 -23
32 -10 12 -23 21 42 1 6
-15 0 11 21 36 50 2 -24
4 18 -11 1 -29 -2 3 21
-16 9 -63 26 10 103 9 41
-13 4 -2 18 -26 -45 32 -11
53 52 -59 -48 -66 48 52 -57
58 -34 37 -65 55 67 38 48
-56 23 7 16 62 -94 -24 -45
-3 70 54 -59 -75 78 -52 27
-59 5 -90 -59 18 127 2 74
-83 -103 -54 32 -17 -92 -116 84
51 46 -48 -33 -62 53 47 -50
41 -27 28 -50 47 52 39 63
-45 23 3 14 49 45 -59 -45
58 -95 29 -64 -39 -32 -68 -60
6 5 68 20 -57 102 1 55
9 -103 -63 20 51 -3 -81 49
41 41 -51 -53 -55 38 46 -46
64 -38 42 -55 44 74 -14 12
-40 -22 55 55 -72 68 -12 -68
3 -5 7 -34 -65 6 -21 13
-63 15 -77 37 14 -20 11 -81
-63 4 11 -48 -21 -46 21 39
127 127 -127 -127 -127 127 127 -127
127 -117 127 -127 127 127 97 98
-127 87 104 113 -127 -127 -65 -114
24 61 127 -127 -127 127 -97 12
-127 34 -122 -127 -12 -15 -4 -127
-113 -127 -87 -89 -96 -127 -127 127
112 113 -87 -105 -117 115 117 -96
96 -104 114 -114 101 107 127 127
00000000: 1218 e4e7 e20d 18e9 20f6 0ce9 152a 0106
00000010: f100 0b15 2432 02e8 0412 f501 e3fe 0315
00000020: f009 c11a 0a67 0929 f304 fe12 e6d3 20f5
00000030: 3534 c5d0 be30 34c7 3ade 25bf 3743 2630
00000040: c817 0710 3ea2 e8d3 fd46 36c5 b54e cc1b
00000050: c505 a6c5 127f 024a ad99 ca20 efa4 8c54
00000060: 332e d0df c235 2fce 29e5 1cce 2f34 273f
00000070: d317 030e 312d c5d3 3aa1 1dc0 d9e0 bcc4
00000080: 0605 4414 c766 0137 0999 c114 33fd af31
00000090: 2929 cdcb c926 2ed2 40da 2ac9 2c4a f20c
000000a0: d8ea 3737 b844 f4bc 03fb 07de bf06 eb0d
000000b0: c10f b325 0eec 0baf c104 0bd0 ebd2 1527
000000c0: 7f7f 8181 817f 7f81 7f8b 7f81 7f7f 6162
000000d0: 8157 6871 8181 bf8e 183d 7f81 817f 9f0c
000000e0: 8122 8681 f4f1 fc81 8f81 a9a7 a081 817f
000000f0: 7071 a997 8b73 75a0 6098 728e 656b 7f7f

blocks/1/mobile_inverted_conv/inverted_bottleneck/conv/weight i1 [48, 1, 1, 8]
-3 -95 19 20 -24 116 -35 127
-27 86 -39 -1 43 -113 18 -127
127 -36 9 -101 2 33 -43 28
11 -23 -123 15 -33 35 127 2
-127 23 -106 -120 -28 0 96 81
26 -2 127 32 24 -27 -114 -32
121 2 -7 127 -13 -8 19 -32
-111 21 125 -103 54 -57 -127 49
95 33 -21 -127 7 -40 33 -25
-17 -60 5 -19 -6 79 -4 -127
20 57 -4 27 5 -81 5 127
127 1 -12 123 -15 -11 1 -3
-127 1 18 -124 13 9 -11 27
-127 1 -5 121 -1 3 -4 -2
4 -4 127 -6 -2 12 124 7
-11 -127 -10 -7 -28 -124 9 -18
-3 88 20 -6 -127 26 -16 -12
2 -1 -124 -5 -1 -4 -127 -1
-97 42 20 -127 27 -38 13 21
1 -107 44 58 -39 127 -14 109
-126 -16 46 -127 18 38 -2 51
21 -8 -127 -12 -49 30 116 2
-10 78 -68 -17 -127 50 68 7
127 -5 -20 -116 -11 1 -32 0
11 89 -2 12 127 124 4 21
-1 67 -1 -20 -127 7 0 -17
-6 -127 -13 -10 -14 -122 14 -3
2 127 23 -10 -53 101 -21 -6
-116 -24 12 127 16 33 -16 24
1 -127 -12 -11 -18 -118 15 -11
-6 -127 -11 -2 53 -98 14 -4
3 112 -2 17 80 127 -8 19
00000000: fda1 1314 e874 dd7f e556 d9ff 2b8f 1281
00000010: 7fdc 099b 0221 d51c 0be9 850f df23 7f02
00000020: 8117 9688 e400 6051 1afe 7f20 18e5 8ee0
00000030: 7902 f97f f3f8 13e0 9115 7d99 36c7 8131
00000040: 5f21 eb81 07d8 21e7 efc4 05ed fa4f fc81
00000050: 1439 fc1b 05af 057f 7f01 f47b f1f5 01fd
00000060: 8101 1284 0d09 f51b 8101 fb79 ff03 fcfe
00000070: 04fc 7ffa fe0c 7c07 f581 f6f9 e484 09ee
00000080: fd58 14fa 811a f0f4 02ff 84fb fffc 81ff
00000090: 9f2a 1481 1bda 0d15 0195 2c3a d97f f26d
000000a0: 82f0 2e81 1226 fe33 15f8 81f4 cf1e 7402
000000b0: f64e bcef 8132 4407 7ffb ec8c f501 e000
000000c0: 0b59 fe0c 7f7c 0415 ff43 ffec 8107 00ef
000000d0: fa81 f3f6 f286 0efd 027f 17f6 cb65 ebfa
000000e0: 8ce8 0c7f 1021 f018 0181 f4f5 ee8a 0ff5
000000f0: fa81 f5fe 359e 0efc 0370 fe11 507f f813

blocks/1/mobile_inverted_conv/point_linear/conv/weight i1 [16, 1, 1, 48]
-127 82 38 -110 -23 -82 -4 19
14 3 11 19 10 -2 -25 9
11 -16 -2 0 0 -12 -37 2
-6 -3 3 -11 2 -2 -3 4
50 4 3 18 20 5 -4 -1
-14 6 3 -1 -6 -13 -12 0
6 1 12 49 113 -127 -84 -43
-3 -38 16 90 -73 -4 16 20
-46 4 30 0 48 18 77 7
-24 45 -56 63 2 50 57 32
27 20 -17 -21 41 -2 30 18
-11 8 9 34 -5 -1 23 0
-45 68 -127 -9 -45 -12 34 -10
-76 -10 2 29 -23 19 47 3
-8 32 10 7 3 -2 -3 -15
-5 3 -1 6 16 4 19 6
13 7 -8 -8 -3 0 -6 3
-1 -3 -19 0 -2 2 4 0
127 -59 76 -37 -12 -19 10 -6
-95 -21 3 -18 -17 59 -54 -4
16 -32 14 10 14 -3 -13 51
-3 2 -1 -10 -6 0 -2 8
9 0 6 1 12 -8 -6 11
-2 8 -7 5 5 -2 2 0
-7 -9 3 78 -93 36 -11 127
-6 -6 1 15 -11 -3 8 6
4 11 0 -5 3 4 13 7
-5 7 -7 7 5 7 3 2
10 3 -1 4 7 1 8 2
-1 0 3 5 -6 6 2 0
7 15 1 -62 -32 42 -51 -76
-3 -18 18 14 -43 -4 4 -11
00000000: 8152 2692 e9ae fc13 0e03 0b13 0afe e709
00000010: 0bf0 fe00 00f4 db02 fafd 03f5 02fe fd04
00000020: 3204 0312 1405 fcff f206 03ff faf3 f400
00000030: 0601 0c31 7181 acd5 fdda 105a b7fc 1014
00000040: d204 1e00 3012 4d07 e82d c83f 0232 3920
00000050: 1b14 efeb 29fe 1e12 f508 0922 fbff 1700
00000060: d344 81f7 d3f4 22f6 b4f6 021d e913 2f03
00000070: f820 0a07 03fe fdf1 fb03 ff06 1004 1306
00000080: 0d07 f8f8 fd00 fa03 fffd ed00 fe02 0400
00000090: 7fc5 4cdb f4ed 0afa a1eb 03ee ef3b cafc
000000a0: 10e0 0e0a 0efd f333 fd02 fff6 fa00 fe08
000000b0: 0900 0601 0cf8 fa0b fe08 f905 05fe 0200
000000c0: f9f7 034e a324 f57f fafa 010f f5fd 0806
000000d0: 040b 00fb 0304 0d07 fb07 f907 0507 0302
000000e0: 0a03 ff04 0701 0802 ff00 0305 fa06 0200
000000f0: 070f 01c2 e02a cdb4 fdee 120e d5fc 04f5

blocks/10/mobile_inverted_conv/depth_conv/conv/weight i1 [1, 3, 3, 192]
-77 -61 17 19 11 -73 -55 -6
-14 7 1 1 -74 9 0 0
37 11 2 -12 -23 -101 -1 4
-8 -51 21 -37 -1 -102 -121 -30
-46 24 -72 -30 99 45 -5 16
35 32 31 9 -127 -4 44 -4
-93 4 -22 -47 -65 -29 17 -7
-12 -46 -80 -9 -15 -31 -16 41
3 37 -25 -2 48 -7 -6 47
36 24 -74 -52 -38 45 1 31
-24 0 64 16 -15 45 13 -104
9 -108 -22 -9 -72 -1 46 98
24 -66 44 59 5 94 -21 -1
9 -42 -28 -69 19 -3 -8 -36
-115 -47 -16 -48 47 -27 -1 51
66 -119 65 0 -117 43 -13 109
-3 25 16 9 37 -123 -85 -1
46 -4 -52 19 71 -49 91 0
-15 17 40 47 22 21 -127 -68
78 -70 -60 -107 -48 16 -86 -31
-3 -83 -95 -36 6 -2 -69 19
-101 -96 111 28 -111 64 17 -62
30 125 -35 -127 -60 -80 -96 127
-51 105 75 37 -109 24 -39 61
-102 -79 23 -44 95 -87 89 4
3 -14 -81 -12 -31 -17 -55 -9
49 37 -44 -20 -127 -58 -56 127
-2 30 8 -110 28 -127 -82 -66
-127 82 -68 -41 127 53 -29 76
127 -123 26 10 -96 15 52 20
-127 127 -30 -27 -20 -44 -49 21
-80 -83 -68 102 -61 -4 -49 127
00000000: b3c3 1113 0bb7 c9fa f207 0101 b609 0000
00000010: 250b 02f4 e99b ff04 f8cd 15db ff9a 87e2
00000020: d218 b8e2 632d fb10 2320 1f09 81fc 2cfc
00000030: a304 ead1 bfe3 11f9 f4d2 b0f7 f1e1 f029
00000040: 0325 e7fe 30f9 fa2f 2418 b6cc da2d 011f
00000050: e800 4010 f12d 0d98 0994 eaf7 b8ff 2e62
00000060: 18be 2c3b 055e ebff 09d6 e4bb 13fd f8dc
00000070: 8dd1 f0d0 2fe5 ff33 4289 4100 8b2b f36d
00000080: fd19 1009 2585 abff 2efc cc13 47cf 5b00
00000090: f111 282f 1615 81bc 4eba c495 d010 aae1
000000a0: fdad a1dc 06fe bb13 9ba0 6f1c 9140 11c2
000000b0: 1e7d dd81 c4b0 a07f cd69 4b25 9318 d93d
000000c0: 9ab1 17d4 5fa9 5904 03f2 aff4 e1ef c9f7
000000d0: 3125 d4ec 81c6 c87f fe1e 0892 1c81 aebe
000000e0: 8152 bcd7 7f35 e34c 7f85 1a0a a00f 3414
000000f0: 817f e2e5 ecd4 cf15 b0ad bc66 c3fc cf7f

blocks/10/mobile_inverted_conv/inverted_bottleneck/conv/weight i1 [192, 1, 1, 48]
3 5 -2 -89 -38 -29 12 67
12 10 72 19 -20 76 -38 48
31 -74 -18 -2 -10 5 26 45
48 -23 42 10 31 38 24 7
-5 -22 -45 -5 -11 -11 4 8
-27 -18 127 -7 12 9 -1 37
3 32 -8 -8 -39 -22 -10 63
-9 3 61 15 15 62 17 0
13 -89 -10 34 -14 -15 -14 5
14 -41 90 -5 56 25 32 -18
-22 -6 16 10 -13 -33 -12 13
5 -35 127 -26 5 17 -13 13
81 -44 -1 -40 11 -48 -4 -49
-95 2 -16 35 -35 -7 -73 -7
37 63 34 24 73 -110 -41 26
22 -97 44 6 14 45 -99 -4
44 -127 -8 -40 5 28 44 22
-21 7 36 66 51 12 65 -10
-20 -1 -39 -33 -45 -53 -4 27
25 60 44 55 -47 127 -86 39
3 -67 -69 -23 -25 -64 10 5
36 -62 92 63 101 38 0 -27
-15 18 -100 -20 -41 -21 -20 51
7 -11 52 26 -51 111 -14 53
-24 49 -56 -72 41 13 12 -17
62 44 -1 28 -57 -17 -10 38
-13 -75 -88 -23 25 -36 62 87
24 -88 84 43 127 -46 59 -90
-81 -27 -43 12 13 32 -56 27
54 -43 31 8 49 8 -20 14
-3 -127 28 30 125 -120 -3 18
-68 -58 38 122 -37 18 -24 34
00000000: 0305 fea7 dae3 0c43 0c0a 4813 ec4c da30
00000010: 1fb6 eefe f605 1a2d 30e9 2a0a 1f26 1807
00000020: fbea d3fb f5f5 0408 e5ee 7ff9 0c09 ff25
00000030: 0320 f8f8 d9ea f63f f703 3d0f 0f3e 1100
00000040: 0da7 f622 f2f1 f205 0ed7 5afb 3819 20ee
00000050: eafa 100a f3df f40d 05dd 7fe6 0511 f30d
00000060: 51d4 ffd8 0bd0 fccf a102 f023 ddf9 b7f9
00000070: 253f 2218 4992 d71a 169f 2c06 0e2d 9dfc
00000080: 2c81 f8d8 051c 2c16 eb07 2442 330c 41f6
00000090: ecff d9df d3cb fc1b 193c 2c37 d17f aa27
000000a0: 03bd bbe9 e7c0 0a05 24c2 5c3f 6526 00e5
000000b0: f112 9cec d7eb ec33 07f5 341a cd6f f235
000000c0: e831 c8b8 290d 0cef 3e2c ff1c c7ef f626
000000d0: f3b5 a8e9 19dc 3e57 18a8 542b 7fd2 3ba6
000000e0: afe5 d50c 0d20 c81b 36d5 1f08 3108 ec0e
000000f0: fd81 1c1e 7d88 fd12 bcc6 267a db12 e822

blocks/10/mobile_inverted_conv/point_linear/conv/weight i1 [48, 1, 1, 192]
-125 -106 -66 -77 37 -24 119 8
7 25 5 30 57 88 -16 -41
37 -20 34 -53 21 23 -18 19
3 -16 77 -20 30 -44 -6 -32
-17 2 -34 5 -108 13 16 43
-31 -29 -15 -20 11 67 -14 57
-40 29 -33 -14 14 36 -28 -30
-45 0 -54 -37 60 44 6 -17
3 7 -25 -33 -38 56 8 38
41 51 -41 11 -7 30 13 8
2 17 -23 3 -22 -33 -24 40
-3 -24 -127 26 25 0 -10 38
33 -14 -41 36 60 1 58 32
-41 -47 8 27 41 -46 13 35
-4 68 -96 -35 -40 33 -50 -28
-32 33 -8 14 40 17 48 -36
-75 -9 -36 -2 62 40 -2 -41
23 4 -95 57 -2 -40 -8 -17
13 3 1 -15 4 -33 -32 28
-26 -14 40 21 10 -46 -21 1
-44 3 40 -41 24 -14 23 -32
-25 19 -12 5 -13 37 -14 34
25 -18 -48 -12 5 -25 -26 14
-89 -2 8 6 16 13 26 28
47 62 61 35 -28 -43 8 4
23 -31 0 17 -3 13 -21 17
7 -71 0 -15 -37 -7 11 1
-43 17 32 51 -34 72 -1 7
5 -62 -30 -17 -12 -42 -19 -80
-21 125 -19 -55 7 33 82 -15
45 15 -2 -49 -17 -54 -53 -25
-30 26 19 14 44 -56 -127 33
00000000: 8396 beb3 25e8 7708 0719 051e 3958 f0d7
00000010: 25ec 22cb 1517 ee13 03f0 4dec 1ed4 fae0
00000020: ef02 de05 940d 102b e1e3 f1ec 0b43 f239
00000030: d81d dff2 0e24 e4e2 d300 cadb 3c2c 06ef
00000040: 0307 e7df da38 0826 2933 d70b f91e 0d08
00000050: 0211 e903 eadf e828 fde8 811a 1900 f626
00000060: 21f2 d724 3c01 3a20 d7d1 081b 29d2 0d23
00000070: fc44 a0dd d821 cee4 e021 f80e 2811 30dc
00000080: b5f7 dcfe 3e28 fed7 1704 a139 fed8 f8ef
00000090: 0d03 01f1 04df e01c e6f2 2815 0ad2 eb01
000000a0: d403 28d7 18f2 17e0 e713 f405 f325 f222
000000b0: 19ee d0f4 05e7 e60e a7fe 0806 100d 1a1c
000000c0: 2f3e 3d23 e4d5 0804 17e1 0011 fd0d eb11
000000d0: 07b9 00f1 dbf9 0b01 d511 2033 de48 ff07
000000e0: 05c2 e2ef f4d6 edb0 eb7d edc9 0721 52f1
000000f0: 2d0f fecf efca cbe7 e21a 130e 2cc8 8121

blocks/11/mobile_inverted_conv/depth_conv/conv/weight i1 [1, 5, 5, 240]
16 23 22 7 4 21 9 3
-3 20 -7 12 -7 -17 0 -7
2 9 -13 9 13 1 27 -3
-19 7 9 7 6 -2 16 -4
13 1 -15 2 -4 -17 12 -27
-12 19 2 12 -10 -10 6 1
6 -14 13 0 13 13 -16 -10
-24 -1 4 10 15 10 10 -4
-10 -2 6 0 -12 16 18 -12
-20 15 9 -5 9 -5 -3 6
11 0 -10 7 8 -9 21 -6
-3 -11 -12 8 5 4 -6 20
17 28 1 1 3 -7 0 17
18 -6 2 -10 1 9 -9 -18
24 17 11 17 -2 30 -13 -3
-14 12 1 4 0 -11 4 13
-2 2 -4 -8 -13 -8 -5 -6
7 -2 12 6 4 -9 -11 1
-16 13 24 8 -17 -32 20 38
-13 4 17 73 40 -4 22 2
51 2 -19 35 -17 -34 35 -18
0 -32 29 4 -4 -13 36 7
-21 -7 -17 11 -30 33 2 -33
-13 -21 -27 -47 -26 -22 4 -7
-26 -75 17 -64 -82 12 17 -14
-5 15 -55 -38 18 6 16 -29
48 -9 -13 36 5 43 -43 -6
34 -41 -14 -34 -21 -3 -9 -21
25 0 3 32 -5 35 59 -22
-4 -55 -4 -61 19 -10 -75 -7
7 14 0 3 -3 -14 -9 6
-7 -2 -10 1 -2 -3 -1 17
00000000: 1017 1607 0415 0903 fd14 f90c f9ef 00f9
00000010: 0209 f309 0d01 1bfd ed07 0907 06fe 10fc
00000020: 0d01 f102 fcef 0ce5 f413 020c f6f6 0601
00000030: 06f2 0d00 0d0d f0f6 e8ff 040a 0f0a 0afc
00000040: f6fe 0600 f410 12f4 ec0f 09fb 09fb fd06
00000050: 0b00 f607 08f7 15fa fdf5 f408 0504 fa14
00000060: 111c 0101 03f9 0011 12fa 02f6 0109 f7ee
00000070: 1811 0b11 fe1e f3fd f20c 0104 00f5 040d
00000080: fe02 fcf8 f3f8 fbfa 07fe 0c06 04f7 f501
00000090: f00d 1808 efe0 1426 f304 1149 28fc 1602
000000a0: 3302 ed23 efde 23ee 00e0 1d04 fcf3 2407
000000b0: ebf9 ef0b e221 02df f3eb e5d1 e6ea 04f9
000000c0: e6b5 11c0 ae0c 11f2 fb0f c9da 1206 10e3
000000d0: 30f7 f324 052b d5fa 22d7 f2de ebfd f7eb
000000e0: 1900 0320 fb23 3bea fcc9 fcc3 13f6 b5f9
000000f0: 070e 0003 fdf2 f706 f9fe f601 fefd ff11

blocks/11/mobile_inverted_conv/inverted_bottleneck/conv/weight i1 [240, 1, 1, 48]
11 -33 8 -33 34 -23 -29 -11
7 -16 23 -3 -18 -10 0 -25
8 72 67 -26 -21 -2 -7 58
44 110 -75 39 -82 -39 -70 9
-2 -42 -42 -58 13 27 2 -43
-10 -13 -4 41 -20 -41 31 -127
20 -21 16 7 18 47 -3 19
40 -7 -33 -8 71 12 36 30
-8 39 69 0 -25 19 7 1
17 27 -62 -127 -16 -63 24 4
2 17 31 -13 33 45 -2 -11
-64 -19 18 2 -20 62 29 62
15 -18 2 -80 63 17 -47 -64
-71 -48 7 -32 62 70 64 -42
3 -13 -67 -6 25 -31 -3 -24
13 2 42 -78 77 16 43 33
-26 -36 -76 35 20 -5 -65 14
-36 21 127 -14 22 80 -60 -23
-54 -42 61 25 -12 -15 36 30
22 -24 -39 -27 29 20 75 -15
-48 -26 48 20 13 9 -2 37
-18 20 19 8 9 -80 35 -40
-71 -21 12 56 -58 53 -26 13
91 127 6 -103 4 -65 -1 -30
-66 -33 -32 53 9 -23 -73 15
-29 -51 -38 -47 -65 6 19 -111
-51 7 -33 -13 66 20 45 -33
-97 33 0 -40 22 -29 31 1
-24 56 -10 -21 66 4 -35 8
-127 -55 3 -13 38 41 60 26
-50 -19 22 -9 11 38 -39 -6
-16 -64 -2 8 64 -8 26 25
00000000: 0bdf 08df 22e9 e3f5 07f0 17fd eef6 00e7
00000010: 0848 43e6 ebfe f93a 2c6e b527 aed9 ba09
00000020: fed6 d6c6 0d1b 02d5 f6f3 fc29 ecd7 1f81
00000030: 14eb 1007 122f fd13 28f9 dff8 470c 241e
00000040: f827 4500 e713 0701 111b c281 f0c1 1804
00000050: 0211 1ff3 212d fef5 c0ed 1202 ec3e 1d3e
00000060: 0fee 02b0 3f11 d1c0 b9d0 07e0 3e46 40d6
00000070: 03f3 bdfa 19e1 fde8 0d02 2ab2 4d10 2b21
00000080: e6dc b423 14fb bf0e dc15 7ff2 1650 c4e9
00000090: cad6 3d19 f4f1 241e 16e8 d9e5 1d14 4bf1
000000a0: d0e6 3014 0d09 fe25 ee14 1308 09b0 23d8
000000b0: b9eb 0c38 c635 e60d 5b7f 0699 04bf ffe2
000000c0: bedf e035 09e9 b70f e3cd dad1 bf06 1391
000000d0: cd07 dff3 4214 2ddf 9f21 00d8 16e3 1f01
000000e0: e838 f6eb 4204 dd08 81c9 03f3 2629 3c1a
000000f0: ceed 16f7 0b26 d9fa f0c0 fe08 40f8 1a19

blocks/11/mobile_inverted_conv/point_linear/conv/weight i1 [96, 1, 1, 240]
54 6 20 -9 -37 87 -39 5
57 -44 -70 33 -75 80 21 1
-22 -19 23 18 82 -31 -37 -62
-35 8 78 -2 46 84 -87 88
21 -18 -49 -100 -34 -43 -66 13
97 -36 32 4 -25 2 -18 -41
20 -1 -14 47 -13 -78 50 127
3 39 34 19 85 -23 -62 -7
-2 58 -112 52 20 -44 0 32
87 6 9 -71 -10 -25 -39 -52
50 5 44 34 -21 7 18 -23
20 -42 10 -40 12 -48 45 -56
3 51 -74 41 -4 32 -68 -47
-71 -31 -47 -69 49 48 38 -18
12 -25 45 -2 9 -32 -7 -3
34 21 29 10 -9 33 34 54
-47 24 -13 -11 38 -38 28 4
-2 -40 -46 -19 -16 -35 54 -73
-5 -13 30 -7 17 -10 17 -44
-22 29 -38 -9 8 -33 -6 16
20 -19 -39 -12 12 -25 0 -15
39 -3 19 -7 -10 -7 -18 -9
-11 17 -21 61 -13 32 -11 6
-11 -1 -24 26 0 12 -8 -16
-3 -14 7 -15 -3 5 23 1
3 -1 -32 15 2 3 -14 -11
11 9 3 15 -7 4 -5 -7
-2 5 -2 18 3 -6 7 -5
16 -4 -7 5 1 9 -8 10
-9 -1 -2 -18 -9 -10 -5 0
18 -18 -119 127 114 -86 23 70
33 21 12 -102 58 -26 27 75
00000000: 3606 14f7 db57 d905 39d4 ba21 b550 1501
00000010: eaed 1712 52e1 dbc2 dd08 4efe 2e54 a958
00000020: 15ee cf9c ded5 be0d 61dc 2004 e702 eed7
00000030: 14ff f22f f3b2 327f 0327 2213 55e9 c2f9
00000040: fe3a 9034 14d4 0020 5706 09b9 f6e7 d9cc
00000050: 3205 2c22 eb07 12e9 14d6 0ad8 0cd0 2dc8
00000060: 0333 b629 fc20 bcd1 b9e1 d1bb 3130 26ee
00000070: 0ce7 2dfe 09e0 f9fd 2215 1d0a f721 2236
00000080: d118 f3f5 26da 1c04 fed8 d2ed f0dd 36b7
00000090: fbf3 1ef9 11f6 11d4 ea1d daf7 08df fa10
000000a0: 14ed d9f4 0ce7 00f1 27fd 13f9 f6f9 eef7
000000b0: f511 eb3d f320 f506 f5ff e81a 000c f8f0
000000c0: fdf2 07f1 fd05 1701 03ff e00f 0203 f2f5
000000d0: 0b09 030f f904 fbf9 fe05 fe12 03fa 07fb
000000e0: 10fc f905 0109 f80a f7ff feee f7f6 fb00
000000f0: 12ee 897f 72aa 1746 2115 0c9a 3ae6 1b4b

blocks/12/mobile_inverted_conv/depth_conv/conv/weight i1 [1, 3, 3, 480]
-121 2 71 55 35 29 -47 50
-33 -35 -26 66 -41 56 14 -28
-19 59 -111 -18 -78 24 74 -74
65 -12 34 -15 71 -127 44 -79
-30 -74 -103 84 46 -70 34 37
-127 17 -84 -22 -11 60 -33 -30
4 15 -43 17 -62 20 -18 86
22 -68 3 21 58 55 64 6
-37 99 -79 59 96 14 18 15
-46 -126 -2 -15 25 118 17 39
-58 -32 -5 -56 34 22 16 27
41 26 74 24 -38 -14 37 48
6 98 -4 -3 46 -16 -29 107
-27 -27 115 45 54 73 -45 94
60 109 45 4 -103 127 -127 28
-97 -58 -105 -112 31 3 -12 37
7 -95 -20 22 14 29 -6 -116
-11 -14 31 117 -97 -119 -66 -26
-28 -126 -6 46 -65 -37 89 28
70 -64 0 37 43 2 27 -83
15 -14 6 -21 38 76 -11 -124
80 5 9 -33 65 6 54 57
-127 21 19 3 -36 7 -125 3
-59 40 -12 -3 41 0 42 20
-28 -14 24 -77 60 49 -28 38
-33 -6 7 -42 79 1 -11 -30
14 67 16 -116 -17 56 21 40
22 -42 39 -31 38 54 47 -52
61 75 -17 4 -40 21 11 18
7 -110 23 36 61 -9 -9 16
-43 -127 -16 118 8 57 53 15
-47 114 21 44 29 -48 -14 42
00000000: 8702 4737 231d d132 dfdd e642 d738 0ee4
00000010: ed3b 91ee b218 4ab6 41f4 22f1 4781 2cb1
00000020: e2b6 9954 2eba 2225 8111 acea f53c dfe2
00000030: 040f d511 c214 ee56 16bc 0315 3a37 4006
00000040: db63 b13b 600e 120f d282 fef1 1976 1127
00000050: c6e0 fbc8 2216 101b 291a 4a18 daf2 2530
00000060: 0662 fcfd 2ef0 e36b e5e5 732d 3649 d35e
00000070: 3c6d 2d04 997f 811c 9fc6 9790 1f03 f425
00000080: 07a1 ec16 0e1d fa8c f5f2 1f75 9f89 bee6
00000090: e482 fa2e bfdb 591c 46c0 0025 2b02 1bad
000000a0: 0ff2 06eb 264c f584 5005 09df 4106 3639
000000b0: 8115 1303 dc07 8303 c528 f4fd 2900 2a14
000000c0: e4f2 18b3 3c31 e426 dffa 07d6 4f01 f5e2
000000d0: 0e43 108c ef38 1528 16d6 27e1 2636 2fcc
000000e0: 3d4b ef04 d815 0b12 0792 1724 3df7 f710
000000f0: d581 f076 0839 350f d172 152c 1dd0 f22a

blocks/12/mobile_inverted_conv/inverted_bottleneck/conv/weight i1 [480, 1, 1, 96]
31 -118 52 41 -84 -5 73 -20
70 -8 11 61 26 88 1 22
105 47 -2 -36 -1 19 -17 59
-51 18 -17 -70 10 17 34 -90
-16 30 59 22 -39 -11 -15 -117
13 46 33 73 17 -27 -18 -42
-27 53 46 -64 60 -2 -109 -57
7 -49 36 -37 -21 -40 46 -55
4 37 -28 -43 -58 -1 -11 9
20 -13 -14 -21 34 55 -11 101
29 -34 24 -25 88 -28 -32 -33
127 -2 111 48 17 30 -50 -13
68 23 9 -41 17 -21 35 -19
-4 91 17 -6 94 -27 87 0
-58 -127 28 -71 10 18 -5 2
109 -7 79 18 -83 69 20 80
-38 -6 37 51 54 14 -49 77
25 18 73 -2 -105 19 75 -42
-31 9 -8 85 56 32 -32 0
26 -26 -97 21 15 21 -13 -12
-44 60 -26 -78 41 25 -97 -6
-12 -15 82 23 -39 -49 -35 -55
22 21 4 44 8 -62 -25 69
-14 28 -85 -36 -16 24 15 17
-71 -25 -46 3 70 -6 28 19
28 35 -33 -113 -32 59 58 7
-32 45 -34 -2 -14 -52 14 38
-73 23 25 31 25 26 67 -64
59 33 -100 -74 -56 0 -39 19
31 2 -2 -3 -32 28 -63 -66
127 -7 40 -14 -9 -51 23 -48
-67 11 8 -12 27 -126 -18 -48
00000000: 1f8a 3429 acfb 49ec 46f8 0b3d 1a58 0116
00000010: 692f fedc ff13 ef3b cd12 efba 0a11 22a6
00000020: f01e 3b16 d9f5 f18b 0d2e 2149 11e5 eed6
00000030: e535 2ec0 3cfe 93c7 07cf 24db ebd8 2ec9
00000040: 0425 e4d5 c6ff f509 14f3 f2eb 2237 f565
00000050: 1dde 18e7 58e4 e0df 7ffe 6f30 111e cef3
00000060: 4417 09d7 11eb 23ed fc5b 11fa 5ee5 5700
00000070: c681 1cb9 0a12 fb02 6df9 4f12 ad45 1450
00000080: dafa 2533 360e cf4d 1912 49fe 9713 4bd6
00000090: e109 f855 3820 e000 1ae6 9f15 0f15 f3f4
000000a0: d43c e6b2 2919 9ffa f4f1 5217 d9cf ddc9
000000b0: 1615 042c 08c2 e745 f21c abdc f018 0f11
000000c0: b9e7 d203 46fa 1c13 1c23 df8f e03b 3a07
000000d0: e02d defe f2cc 0e26 b717 191f 191a 43c0
000000e0: 3b21 9cb6 c800 d913 1f02 fefd e01c c1be
000000f0: 7ff9 28f2 f7cd 17d0 bd0b 08f4 1b82 eed0

blocks/12/mobile_inverted_conv/point_linear/conv/weight i1 [96, 1, 1, 480]
-83 74 36 21 48 82 53 -21
-57 43 45 5 19 -28 -29 8
-14 -37 9 79 -54 1 3 43
-38 2 -12 0 1 -22 30 63
3 -29 10 36 -21 -105 8 -8
-5 25 -13 13 71 26 -3 -33
9 -38 5 -6 -59 62 -58 31
-11 -51 -10 41 -31 -45 -47 -32
-1 -1 38 -20 -19 10 5 21
39 22 -9 -44 -59 24 -22 46
-38 19 -1 42 3 -19 -15 66
-10 -59 -23 -46 21 -46 -35 36
19 9 -60 -5 -45 -79 -32 7
-17 5 -53 34 -21 46 43 -39
18 16 4 3 -14 59 -16 15
-13 49 32 -28 17 73 -17 23
-5 20 -22 41 67 32 30 26
-5 -3 -83 62 53 -96 -19 -5
59 28 -3 -34 3 -25 -3 0
45 -37 39 -36 -19 35 58 46
-20 -13 -40 -75 -12 -22 -13 -21
-28 34 14 -56 -44 58 9 -51
-25 -20 16 -57 -13 -54 -32 8
-1 1 18 -9 -15 7 3 -11
-13 -27 8 -32 59 30 15 -74
53 7 -27 37 -40 -12 -110 -33
-36 -51 4 -15 37 1 -3 67
1 26 -44 -34 16 24 8 127
37 32 57 -15 -9 35 7 6
-9 4 -42 -7 31 74 0 15
59 -22 34 -59 62 -26 -7 15
-17 2 37 18 -2 30 4 9
00000000: ad4a 2415 3052 35eb c72b 2d05 13e4 e308
00000010: f2db 094f ca01 032b da02 f400 01ea 1e3f
00000020: 03e3 0a24 eb97 08f8 fb19 f30d 471a fddf
00000030: 09da 05fa c53e c61f f5cd f629 e1d3 d1e0
00000040: ffff 26ec ed0a 0515 2716 f7d4 c518 ea2e
00000050: da13 ff2a 03ed f142 f6c5 e9d2 15d2 dd24
00000060: 1309 c4fb d3b1 e007 ef05 cb22 eb2e 2bd9
00000070: 1210 0403 f23b f00f f331 20e4 1149 ef17
00000080: fb14 ea29 4320 1e1a fbfd ad3e 35a0 edfb
00000090: 3b1c fdde 03e7 fd00 2ddb 27dc ed23 3a2e
000000a0: ecf3 d8b5 f4ea f3eb e422 0ec8 d43a 09cd
000000b0: e7ec 10c7 f3ca e008 ff01 12f7 f107 03f5
000000c0: f3e5 08e0 3b1e 0fb6 3507 e525 d8f4 92df
000000d0: dccd 04f1 2501 fd43 011a d4de 1018 087f
000000e0: 2520 39f1 f723 0706 f704 d6f9 1f4a 000f
000000f0: 3bea 22c5 3ee6 f90f ef02 2512 fe1e 0409

blocks/13/mobile_inverted_conv/depth_conv/conv/weight i1 [1, 3, 3, 384]
14 -54 9 81 37 -102 2 33
28 60 38 -9 36 88 -92 6
-18 33 -35 20 42 8 44 -19
54 -6 61 -93 4 47 -15 41
16 -10 3 91 -107 -92 -18 69
-39 15 -42 6 31 14 -66 47
13 4 -102 -48 -70 -86 76 20
-6 84 90 45 -10 -6 0 -17
18 12 20 42 -55 -21 8 81
16 -22 -60 3 -2 -31 12 -35
-40 -22 -30 30 15 25 -50 64
21 -58 -15 40 89 70 18 75
55 98 -67 -26 31 107 27 49
37 19 22 16 3 35 6 37
44 79 -51 13 22 -39 42 36
65 30 37 -19 18 -43 10 127
81 -25 30 -103 43 14 29 47
-50 27 -24 65 58 -8 14 -50
-47 23 10 24 89 -33 18 -121
-64 -99 43 33 57 33 -7 -26
-6 29 -68 -4 -6 32 86 33
63 -39 83 11 53 38 -27 9
16 66 -10 127 28 85 32 79
-124 24 -118 7 22 3 -76 24
33 85 -58 13 64 -24 15 40
-9 13 0 -9 -96 11 -27 76
-34 12 38 -14 33 -97 53 102
31 110 55 21 42 98 48 6
127 9 127 -100 112 59 47 -7
44 24 76 -5 -21 -30 -14 94
37 -9 44 37 47 88 -53 -5
-24 56 49 -14 2 102 -127 98
00000000: 0eca 0951 259a 0221 1c3c 26f7 2458 a406
00000010: ee21 dd14 2a08 2ced 36fa 3da3 042f f129
00000020: 10f6 035b 95a4 ee45 d90f d606 1f0e be2f
00000030: 0d04 9ad0 baaa 4c14 fa54 5a2d f6fa 00ef
00000040: 120c 142a c9eb 0851 10ea c403 fee1 0cdd
00000050: d8ea e21e 0f19 ce40 15c6 f128 5946 124b
00000060: 3762 bde6 1f6b 1b31 2513 1610 0323 0625
00000070: 2c4f cd0d 16d9 2a24 411e 25ed 12d5 0a7f
00000080: 51e7 1e99 2b0e 1d2f ce1b e841 3af8 0ece
00000090: d117 0a18 59df 1287 c09d 2b21 3921 f9e6
000000a0: fa1d bcfc fa20 5621 3fd9 530b 3526 e509
000000b0: 1042 f67f 1c55 204f 8418 8a07 1603 b418
000000c0: 2155 c60d 40e8 0f28 f70d 00f7 a00b e54c
000000d0: de0c 26f2 219f 3566 1f6e 3715 2a62 3006
000000e0: 7f09 7f9c 703b 2ff9 2c18 4cfb ebe2 f25e
000000f0: 25f7 2c25 2f58 cbfb e838 31f2 0266 8162

blocks/13/mobile_inverted_conv/inverted_bottleneck/conv/weight i1 [384, 1, 1, 96]
-11 16 78 41 2 40 -25 -9
40 22 -18 12 -16 7 -4 -12
-37 -22 28 -6 2 11 14 -56
7 29 -28 -12 127 16 -57 20
66 -44 -80 -7 -24 -30 -24 -24
3 39 -15 -7 -79 33 4 43
9 20 35 46 -49 39 -49 -20
-5 70 -41 3 38 -25 15 11
-34 15 -23 -6 16 23 -36 -4
-41 -36 25 -17 22 24 40 -19
77 75 92 -34 31 -22 8 -10
13 -48 -26 -31 9 -23 42 26
35 91 42 6 86 12 16 -104
-3 90 0 -1 109 -41 -8 47
8 -24 52 -9 51 26 -11 -3
-28 -33 -21 -61 22 -11 -30 50
26 49 -12 -56 -96 30 -71 -65
28 16 46 -20 80 62 51 -39
127 -11 70 102 -37 -76 45 70
-28 -5 25 -28 87 -58 9 36
77 21 -4 -44 31 15 -13 -75
51 -10 121 -2 -91 1 -53 -14
-5 13 53 -15 44 10 -62 50
-9 -20 -74 -95 -39 -51 -2 23
-27 30 64 -16 48 -23 -11 -52
-54 29 52 5 23 6 -23 11
-89 -15 30 -28 20 38 36 -40
-26 -91 86 -13 69 -28 30 -28
83 12 12 -104 50 -1 -81 -23
5 44 77 -41 -15 4 71 -15
44 6 7 102 -35 53 9 -111
-22 0 29 0 86 -3 32 -19
00000000: f510 4e29 0228 e7f7 2816 ee0c f007 fcf4
00000010: dbea 1cfa 020b 0ec8 071d e4f4 7f10 c714
00000020: 42d4 b0f9 e8e2 e8e8 0327 f1f9 b121 042b
00000030: 0914 232e cf27 cfec fb46 d703 26e7 0f0b
00000040: de0f e9fa 1017 dcfc d7dc 19ef 1618 28ed
00000050: 4d4b 5cde 1fea 08f6 0dd0 e6e1 09e9 2a1a
00000060: 235b 2a06 560c 1098 fd5a 00ff 6dd7 f82f
00000070: 08e8 34f7 331a f5fd e4df ebc3 16f5 e232
00000080: 1a31 f4c8 a01e b9bf 1c10 2eec 503e 33d9
00000090: 7ff5 4666 dbb4 2d46 e4fb 19e4 57c6 0924
000000a0: 4d15 fcd4 1f0f f3b5 33f6 79fe a501 cbf2
000000b0: fb0d 35f1 2c0a c232 f7ec b6a1 d9cd fe17
000000c0: e51e 40f0 30e9 f5cc ca1d 3405 1706 e90b
000000d0: a7f1 1ee4 1426 24d8 e6a5 56f3 45e4 1ee4
000000e0: 530c 0c98 32ff afe9 052c 4dd7 f104 47f1
000000f0: 2c06 0766 dd35 0991 ea00 1d00 56fd 20ed

blocks/13/mobile_inverted_conv/point_linear/conv/weight i1 [96, 1, 1, 384]
-18 -6 34 -14 51 -20 69 -15
-4 4 -109 76 32 127 17 -2
-25 -39 -37 122 -13 -64 -45 49
-21 37 -4 -41 -57 -73 -9 -18
59 -14 -40 -55 4 12 2 12
-50 -42 -1 -51 -77 103 51 -55
-53 -22 19 63 -64 56 6 -25
-67 43 -23 -68 -13 5 -38 102
36 10 -38 47 40 78 44 -50
18 -73 6 -58 49 34 -54 -59
-11 -68 -90 0 18 -69 -15 11
3 -76 11 35 39 83 -3 7
-35 -15 40 -51 -88 -22 12 34
-35 -75 15 91 36 -10 -37 -16
45 -28 23 -34 -23 -12 10 41
29 87 68 -6 53 81 90 -46
23 4 43 -39 57 65 -3 51
-15 50 82 58 70 -7 -33 32
12 -20 64 9 38 23 27 7
-9 -25 -18 -8 9 6 2 6
-27 6 81 37 33 17 56 -63
-3 21 -18 0 14 59 -4 40
58 -17 -17 -31 64 37 9 27
10 43 16 -20 26 51 -24 -64
-27 -31 5 -15 3 21 -80 46
-5 -81 -39 -18 64 24 -37 -79
51 -7 -34 51 36 -4 -13 0
-7 -18 -50 -34 5 40 6 50
-18 3 -32 47 -56 43 23 -18
32 -29 -19 -20 -36 -48 -21 -30
-27 -43 80 45 -3 -25 -4 50
-1 -17 -19 35 11 -22 -17 -49
00000000: eefa 22f2 33ec 45f1 fc04 934c 207f 11fe
00000010: e7d9 db7a f3c0 d331 eb25 fcd7 c7b7 f7ee
00000020: 3bf2 d8c9 040c 020c ced6 ffcd b367 33c9
00000030: cbea 133f c038 06e7 bd2b e9bc f305 da66
00000040: 240a da2f 284e 2cce 12b7 06c6 3122 cac5
00000050: f5bc a600 12bb f10b 03b4 0b23 2753 fd07
00000060: ddf1 28cd a8ea 0c22 ddb5 0f5b 24f6 dbf0
00000070: 2de4 17de e9f4 0a29 1d57 44fa 3551 5ad2
00000080: 1704 2bd9 3941 fd33 f132 523a 46f9 df20
00000090: 0cec 4009 2617 1b07 f7e7 eef8 0906 0206
000000a0: e506 5125 2111 38c1 fd15 ee00 0e3b fc28
000000b0: 3aef efe1 4025 091b 0a2b 10ec 1a33 e8c0
000000c0: e5e1 05f1 0315 b02e fbaf d9ee 4018 dbb1
000000d0: 33f9 de33 24fc f300 f9ee cede 0528 0632
000000e0: ee03 e02f c82b 17ee 20e3 edec dcd0 ebe2
000000f0: e5d5 502d fde7 fc32 ffef ed23 0bea efcf

blocks/14/mobile_inverted_conv/depth_conv/conv/weight i1 [1, 7, 7, 288]
-7 14 -8 7 -54 -4 6 -8
-25 12 7 -6 -13 -1 55 2
-3 3 -5 1 -1 6 3 -5
14 14 -19 -13 10 -23 -21 1
3 0 -2 10 0 -2 6 -20
-18 -2 2 -12 2 -10 -11 -1
15 -12 -1 0 10 -46 -15 -9
-16 9 -20 -1 -9 -8 -6 -6
-11 -3 -16 -12 -47 6 -8 -1
11 -11 21 -24 -6 9 -4 -22
-26 7 -21 13 -21 -38 2 -32
-3 2 -1 -7 1 -18 -5 5
3 1 -22 -9 15 7 -3 -11
0 -23 30 -9 -18 -15 1 -4
-1 -13 -3 -1 -7 0 -6 -26
0 -28 -31 -19 -4 11 -7 -8
-10 -6 -11 17 -17 -8 -6 -16
3 10 -12 -7 -4 3 -14 -34
-23 -11 -3 -14 -3 -43 -4 -9
-27 4 -2 -29 -7 -1 -28 -31
-24 -5 -2 -7 -4 -40 -1 4
-2 5 -11 -20 -7 -7 -1 2
-22 -1 -1 -4 -6 -17 -19 5
-4 -31 -6 -23 -5 3 -17 -15
-7 -7 -14 -6 -39 3 -5 -8
-4 -16 -10 -7 -2 -9 -24 -16
-6 -11 12 -4 -8 -20 -39 -34
-14 4 -25 -11 -39 -5 -21 -11
-10 4 -13 -6 -23 -3 -7 -5
-20 3 -45 32 -27 1 -22 3
23 -14 -10 -41 -15 -13 -8 -14
-5 -39 -9 1 -13 -6 -3 -8
00000000: f90e f807 cafc 06f8 e70c 07fa f3ff 3702
00000010: fd03 fb01 ff06 03fb 0e0e edf3 0ae9 eb01
00000020: 0300 fe0a 00fe 06ec eefe 02f4 02f6 f5ff
00000030: 0ff4 ff00 0ad2 f1f7 f009 ecff f7f8 fafa
00000040: f5fd f0f4 d106 f8ff 0bf5 15e8 fa09 fcea
00000050: e607 eb0d ebda 02e0 fd02 fff9 01ee fb05
00000060: 0301 eaf7 0f07 fdf5 00e9 1ef7 eef1 01fc
00000070: fff3 fdff f900 fae6 00e4 e1ed fc0b f9f8
00000080: f6fa f511 eff8 faf0 030a f4f9 fc03 f2de
00000090: e9f5 fdf2 fdd5 fcf7 e504 fee3 f9ff e4e1
000000a0: e8fb fef9 fcd8 ff04 fe05 f5ec f9f9 ff02
000000b0: eaff fffc faef ed05 fce1 fae9 fb03 eff1
000000c0: f9f9 f2fa d903 fbf8 fcf0 f6f9 fef7 e8f0
000000d0: faf5 0cfc f8ec d9de f204 e7f5 d9fb ebf5
000000e0: f604 f3fa e9fd f9fb ec03 d320 e501 ea03
000000f0: 17f2 f6d7 f1f3 f8f2 fbd9 f701 f3fa fdf8

blocks/14/mobile_inverted_conv/inverted_bottleneck/conv/weight i1 [288, 1, 1, 96]
-17 54 36 88 7 4 51 -39
-72 42 39 -56 -37 -29 44 -10
-25 -37 -18 -37 -1 -81 -5 17
98 -8 74 -57 0 -69 -19 79
22 -33 -39 -16 127 93 48 3
102 41 -31 -45 34 37 63 -39
-51 -10 -53 96 -78 11 5 32
-29 -3 -13 13 -27 73 -9 30
22 11 8 54 -20 -98 -27 -50
-32 -6 26 3 -106 28 21 23
-44 -45 21 58 -29 -49 38 47
-5 16 42 -2 7 -5 43 10
-20 73 -17 10 42 43 -33 -13
-38 48 91 -31 -39 -26 12 -10
-50 64 -33 26 32 -70 -11 -22
90 -14 21 -29 36 -66 25 34
49 -72 -41 -10 38 43 47 22
98 58 -43 -62 6 10 59 -32
7 -58 -73 127 -49 39 44 8
-41 12 -51 19 21 51 -32 62
26 -29 4 22 59 -38 -24 -64
-56 19 -36 29 -80 -34 7 -31
-53 -10 50 43 -40 -15 41 51
-34 2 11 -6 7 -50 46 38
-20 -10 127 -36 -11 25 -12 -2
-35 22 22 15 74 -7 15 -3
-12 -35 42 12 55 36 -14 -36
30 -7 -28 10 25 -9 36 -3
3 -24 24 -35 -43 6 -28 13
-6 -8 -3 -76 -19 12 42 -17
-18 -16 -14 66 -2 13 25 -7
-39 3 -27 22 26 45 -7 -45
00000000: ef36 2458 0704 33d9 b82a 27c8 dbe3 2cf6
00000010: e7db eedb ffaf fb11 62f8 4ac7 00bb ed4f
00000020: 16df d9f0 7f5d 3003 6629 e1d3 2225 3fd9
00000030: cdf6 cb60 b20b 0520 e3fd f30d e549 f71e
00000040: 160b 0836 ec9e e5ce e0fa 1a03 961c 1517
00000050: d4d3 153a e3cf 262f fb10 2afe 07fb 2b0a
00000060: ec49 ef0a 2a2b dff3 da30 5be1 d9e6 0cf6
00000070: ce40 df1a 20ba f5ea 5af2 15e3 24be 1922
00000080: 31b8 d7f6 262b 2f16 623a d5c2 060a 3be0
00000090: 07c6 b77f cf27 2c08 d70c cd13 1533 e03e
000000a0: 1ae3 0416 3bda e8c0 c813 dc1d b0de 07e1
000000b0: cbf6 322b d8f1 2933 de02 0bfa 07ce 2e26
000000c0: ecf6 7fdc f519 f4fe dd16 160f 4af9 0ffd
000000d0: f4dd 2a0c 3724 f2dc 1ef9 e40a 19f7 24fd
000000e0: 03e8 18dd d506 e40d faf8 fdb4 ed0c 2aef
000000f0: eef0 f242 fe0d 19f9 d903 e516 1a2d f9d3

blocks/14/mobile_inverted_conv/point_linear/conv/weight i1 [160, 1, 1, 288]
127 -124 20 20 -13 -39 -36 0
-28 0 -11 17 26 26 -28 -15
-21 -53 -37 -39 19 11 -29 38
-25 -27 13 -18 2 -4 -19 35
28 3 18 1 7 -11 -17 11
16 -27 -3 14 -13 42 -3 -3
-19 -30 -25 -12 -7 5 -3 18
-31 -41 -49 22 0 21 38 -11
-27 34 36 -42 11 -23 -10 26
5 19 -20 11 -12 38 41 -51
30 5 4 -21 28 35 54 7
2 61 -7 -58 3 21 43 12
36 -18 35 32 -1 21 -78 -35
23 16 -14 7 -5 -3 45 4
12 17 -22 -6 -44 -17 -6 90
-5 -8 -10 29 -30 -25 22 4
-40 68 -9 0 14 -14 -16 10
-24 23 -27 44 -73 67 39 -5
-1 45 61 60 60 5 3 5
-36 3 -6 -23 -22 19 13 13
18 22 -53 1 -21 21 -19 15
5 -25 -55 -18 22 2 12 19
3 32 -22 -21 -22 -22 -15 -27
-32 16 -33 -12 -39 -38 6 -7
39 26 25 -63 -7 8 23 -8
45 30 -2 11 33 -4 20 -9
12 -3 -11 -5 3 45 12 -18
24 -41 -13 -1 60 -6 -16 -6
-42 33 -28 29 -40 -14 -21 -7
24 27 -16 4 -17 78 1 42
31 59 -10 -4 12 -45 47 -36
-39 -40 2 0 25 16 -2 -26
00000000: 7f84 1414 f3d9 dc00 e400 f511 1a1a e4f1
00000010: ebcb dbd9 130b e326 e7e5 0dee 02fc ed23
00000020: 1c03 1201 07f5 ef0b 10e5 fd0e f32a fdfd
00000030: ede2 e7f4 f905 fd12 e1d7 cf16 0015 26f5
00000040: e522 24d6 0be9 f61a 0513 ec0b f426 29cd
00000050: 1e05 04eb 1c23 3607 023d f9c6 0315 2b0c
00000060: 24ee 2320 ff15 b2dd 1710 f207 fbfd 2d04
00000070: 0c11 eafa d4ef fa5a fbf8 f61d e2e7 1604
00000080: d844 f700 0ef2 f00a e817 e52c b743 27fb
00000090: ff2d 3d3c 3c05 0305 dc03 fae9 ea13 0d0d
000000a0: 1216 cb01 eb15 ed0f 05e7 c9ee 1602 0c13
000000b0: 0320 eaeb eaea f1e5 e010 dff4 d9da 06f9
000000c0: 271a 19c1 f908 17f8 2d1e fe0b 21fc 14f7
000000d0: 0cfd f5fb 032d 0cee 18d7 f3ff 3cfa f0fa
000000e0: d621 e41d d8f2 ebf9 181b f004 ef4e 012a
000000f0: 1f3b f6fc 0cd3 2fdc d9d8 0200 1910 fee6

blocks/2/mobile_inverted_conv/depth_conv/conv/weight i1 [1, 3, 3, 48]
2 8 2 -15 -20 119 10 113
-20 8 -8 9 3 4 -14 -39
-45 -23 -9 -17 2 43 42 -5
-1 -22 24 -1 5 -1 -43 37
-17 -7 -12 17 -17 -1 -18 44
45 -15 0 -4 -127 -20 -28 -12
-101 127 -8 -38 45 25 15 -5
8 -29 -41 -12 -14 -13 30 -34
-127 -91 27 -28 -66 127 -15 -111
18 -10 -15 52 -61 11 -127 -11
-31 98 -32 -33 -90 -27 2 113
54 -42 -64 -43 -39 -127 -65 -6
6 12 12 -15 -7 120 -1 -127
-15 -7 3 -37 -6 3 18 -39
-29 -25 -5 -15 0 14 41 22
3 -6 -9 -12 20 -43 -12 -45
6 -13 0 3 -19 6 -21 6
45 -19 7 6 115 -8 24 -30
-127 -71 -4 -6 63 127 26 8
-52 9 -5 22 15 10 -19 70
7 -15 -55 1 -60 -13 1 -85
-28 6 127 -31 53 42 1 127
-61 -68 5 70 -50 2 13 -10
43 -38 -28 -127 9 105 -22 -3
96 -37 -127 127 -127 -66 127 -6
127 127 127 127 127 127 127 127
8 -33 127 127 127 -46 -127 127
-127 127 -3 -127 98 127 20 -19
127 12 127 -127 127 127 127 6
127 127 -61 44 38 20 96 127
-85 -76 -19 11 55 57 16 2
-26 -66 -41 18 18 14 55 66
00000000: 0208 02f1 ec77 0a71 ec08 f809 0304 f2d9
00000010: d3e9 f7ef 022b 2afb ffea 18ff 05ff d525
00000020: eff9 f411 efff ee2c 2df1 00fc 81ec e4f4
00000030: 9b7f f8da 2d19 0ffb 08e3 d7f4 f2f3 1ede
00000040: 81a5 1be4 be7f f191 12f6 f134 c30b 81f5
00000050: e162 e0df a6e5 0271 36d6 c0d5 d981 bffa
00000060: 060c 0cf1 f978 ff81 f1f9 03db fa03 12d9
00000070: e3e7 fbf1 000e 2916 03fa f7f4 14d5 f4d3
00000080: 06f3 0003 ed06 eb06 2ded 0706 73f8 18e2
00000090: 81b9 fcfa 3f7f 1a08 cc09 fb16 0f0a ed46
000000a0: 07f1 c901 c4f3 01ab e406 7fe1 352a 017f
000000b0: c3bc 0546 ce02 0df6 2bda e481 0969 eafd
000000c0: 60db 817f 81be 7ffa 7f7f 7f7f 7f7f 7f7f
000000d0: 08df 7f7f 7fd2 817f 817f fd81 627f 14ed
000000e0: 7f0c 7f81 7f7f 7f06 7f7f c32c 2614 607f
000000f0: abb4 ed0b 3739 1002 e6be d712 120e 3742

blocks/2/mobile_inverted_conv/inverted_bottleneck/conv/weight i1 [48, 1, 1, 16]
6 32 -31 4 22 -76 127 -28
-24 -25 0 25 -25 -2 -23 -34
34 -22 -38 2 3 14 26 -7
-3 -127 57 -87 92 17 1 -49
-10 -42 10 1 127 7 -17 -41
-3 9 6 4 3 -3 0 12
8 63 -7 13 10 -3 -17 14
-3 -62 -3 -127 -1 -2 -4 16
-20 -100 75 -65 -40 -22 -107 -71
-6 119 -8 -31 127 -8 56 63
-11 -50 1 22 -5 13 21 14
-2 127 -8 22 -11 -3 -12 -5
-127 2 -9 -39 -3 -2 -4 14
-5 15 7 11 -12 -60 -2 -30
38 37 -16 32 -127 -19 9 46
9 -24 3 9 -21 1 9 -30
3 40 27 -5 4 -16 -31 35
-7 31 -14 43 -127 -12 -3 61
-3 2 -56 120 8 18 -4 12
-22 -8 -33 -25 14 -127 73 49
127 36 77 -60 25 -9 52 19
-42 -17 43 13 -43 -70 -34 0
-19 127 -35 3 -100 -62 8 24
16 22 36 86 -64 -1 25 -45
10 30 -14 -29 -11 0 12 -14
-7 10 56 16 13 -21 1 127
-1 9 3 -48 -11 -17 -18 -31
28 7 11 -15 8 57 -127 -10
127 21 3 47 4 -24 1 -9
4 9 -3 26 -12 62 3 0
-11 67 -2 22 14 8 -20 -11
-2 -14 12 -127 2 2 2 12
00000000: 0620 e104 16b4 7fe4 e8e7 0019 e7fe e9de
00000010: 22ea da02 030e 1af9 fd81 39a9 5c11 01cf
00000020: f6d6 0a01 7f07 efd7 fd09 0604 03fd 000c
00000030: 083f f90d 0afd ef0e fdc2 fd81 fffe fc10
00000040: ec9c 4bbf d8ea 95b9 fa77 f8e1 7ff8 383f
00000050: f5ce 0116 fb0d 150e fe7f f816 f5fd f4fb
00000060: 8102 f7d9 fdfe fc0e fb0f 070b f4c4 fee2
00000070: 2625 f020 81ed 092e 09e8 0309 eb01 09e2
00000080: 0328 1bfb 04f0 e123 f91f f22b 81f4 fd3d
00000090: fd02 c878 0812 fc0c eaf8 dfe7 0e81 4931
000000a0: 7f24 4dc4 19f7 3413 d6ef 2b0d d5ba de00
000000b0: ed7f dd03 9cc2 0818 1016 2456 c0ff 19d3
000000c0: 0a1e f2e3 f500 0cf2 f90a 3810 0deb 017f
000000d0: ff09 03d0 f5ef eee1 1c07 0bf1 0839 81f6
000000e0: 7f15 032f 04e8 01f7 0409 fd1a f43e 0300
000000f0: f543 fe16 0e08 ecf5 fef2 0c81 0202 020c

blocks/2/mobile_inverted_conv/point_linear/conv/weight i1 [16, 1, 1, 48]
61 60 64 83 7 41 127 20
93 1 -44 77 98 15 61 -14
-26 29 -56 36 7 -55 52 -59
-43 13 -38 -40 17 45 -22 -73
-62 8 -25 10 16 -33 -16 -10
17 -20 24 8 39 31 21 -18
-45 -26 -79 45 -12 41 -15 -39
-16 0 32 74 -35 60 7 -9
-29 -9 -32 -86 4 27 60 -127
1 63 -32 -22 -52 16 12 17
-42 -49 -5 -38 15 8 -11 -9
10 -4 -13 -39 -26 13 -8 87
-127 -40 -1 -55 -103 -57 94 -50
-28 -36 76 -8 97 -28 72 -18
74 57 -38 -31 -48 -38 18 -44
-24 13 -84 69 -73 45 31 -15
-39 42 76 -90 -4 -52 77 20
-6 23 53 33 -38 -41 3 104
-46 57 28 23 -26 32 57 67
65 127 -68 33 71 -45 19 12
42 33 -84 34 13 19 -1 -13
11 -19 -37 9 27 97 -24 15
-5 -29 -59 -46 8 -116 -106 12
26 34 4 -92 48 36 -8 -34
8 57 126 70 38 60 77 98
57 -36 -14 -101 51 61 42 -29
6 35 -52 27 22 -25 61 68
-57 127 6 -21 -73 -19 20 4
-3 -93 -31 0 5 11 -13 25
39 -64 31 -3 25 45 -3 32
53 15 -127 25 -23 -45 23 10
-5 -7 -23 -39 49 5 23 20
00000000: 3d3c 4053 0729 7f14 5d01 d44d 620f 3df2
00000010: e61d c824 07c9 34c5 d50d dad8 112d eab7
00000020: c208 e70a 10df f0f6 11ec 1808 271f 15ee
00000030: d3e6 b12d f429 f1d9 f000 204a dd3c 07f7
00000040: e3f7 e0aa 041b 3c81 013f e0ea cc10 0c11
00000050: d6cf fbda 0f08 f5f7 0afc f3d9 e60d f857
00000060: 81d8 ffc9 99c7 5ece e4dc 4cf8 61e4 48ee
00000070: 4a39 dae1 d0da 12d4 e80d ac45 b72d 1ff1
00000080: d92a 4ca6 fccc 4d14 fa17 3521 dad7 0368
00000090: d239 1c17 e620 3943 417f bc21 47d3 130c
000000a0: 2a21 ac22 0d13 fff3 0bed db09 1b61 e80f
000000b0: fbe3 c5d2 088c 960c 1a22 04a4 3024 f8de
000000c0: 0839 7e46 263c 4d62 39dc f29b 333d 2ae3
000000d0: 0623 cc1b 16e7 3d44 c77f 06eb b7ed 1404
000000e0: fda3 e100 050b f319 27c0 1ffd 192d fd20
000000f0: 350f 8119 e9d3 170a fbf9 e9d9 3105 1714

blocks/3/mobile_inverted_conv/depth_conv/conv/weight i1 [1, 3, 3, 48]
-60 8 47 -21 7 -10 42 32
24 15 36 -8 -63 -56 -49 7
-29 -24 -38 33 -1 -29 0 4
-13 -19 -32 25 31 -1 28 0
-74 11 -8 23 22 64 0 18
38 59 -57 13 -91 -4 65 91
-127 -37 -58 -127 -100 -85 47 -75
-7 -127 -24 95 65 4 -55 127
68 -127 -127 -127 -84 -127 -4 71
-10 53 -11 -46 -105 -56 83 -65
127 26 -127 27 -109 -3 53 -38
-59 0 127 24 -77 20 -48 9
-67 8 -70 2 -3 -44 -52 7
6 35 53 -14 -55 46 -12 23
-29 9 -63 -12 -6 -18 12 15
-49 61 -43 9 30 3 53 1
-82 13 -6 28 -16 27 10 16
17 -103 -45 35 -99 -1 63 -83
123 -46 26 -106 24 -27 127 69
-39 32 -127 19 23 -95 15 -39
59 66 -94 -23 126 113 -42 -32
-43 -127 -42 -46 -50 -20 88 -26
-65 25 -96 -48 -127 120 -54 69
71 108 -91 13 -48 -104 -42 31
114 127 127 -1 127 -127 -40 -127
-127 -110 74 81 127 -56 127 30
127 -50 6 -24 70 17 120 -127
124 36 127 127 127 127 -43 127
90 -127 21 -127 1 77 -127 -127
-127 -22 112 -127 -70 127 -26 -127
100 -37 -36 66 36 -92 -102 51
-59 41 -105 21 -24 127 58 -39
00000000: c408 2feb 07f6 2a20 180f 24f8 c1c8 cf07
00000010: e3e8 da21 ffe3 0004 f3ed e019 1fff 1c00
00000020: b60b f817 1640 0012 263b c70d a5fc 415b
00000030: 81db c681 9cab 2fb5 f981 e85f 4104 c97f
00000040: 4481 8181 ac81 fc47 f635 f5d2 97c8 53bf
00000050: 7f1a 811b 93fd 35da c500 7f18 b314 d009
00000060: bd08 ba02 fdd4 cc07 0623 35f2 c92e f417
00000070: e309 c1f4 faee 0c0f cf3d d509 1e03 3501
00000080: ae0d fa1c f01b 0a10 1199 d323 9dff 3fad
00000090: 7bd2 1a96 18e5 7f45 d920 8113 17a1 0fd9
000000a0: 3b42 a2e9 7e71 d6e0 d581 d6d2 ceec 58e6
000000b0: bf19 a0d0 8178 ca45 476c a50d d098 d61f
000000c0: 727f 7fff 7f81 d881 8192 4a51 7fc8 7f1e
000000d0: 7fce 06e8 4611 7881 7c24 7f7f 7f7f d57f
000000e0: 5a81 1581 014d 8181 81ea 7081 ba7f e681
000000f0: 64db dc42 24a4 9a33 c529 9715 e87f 3ad9

blocks/3/mobile_inverted_conv/inverted_bottleneck/conv/weight i1 [48, 1, 1, 16]
-58 30 20 -11 3 -29 -17 127
27 -5 -10 46 29 30 52 -50
53 127 5 37 79 -8 -4 -60
-2 -99 -50 26 -126 2 -21 22
48 -64 13 -15 -127 -12 -79 11
3 34 3 -16 -4 28 18 -47
-2 -35 27 34 -42 3 11 -4
26 4 8 3 13 -38 127 -21
-47 -92 36 -14 -59 -1 44 -35
127 10 12 -91 40 -82 -6 -28
42 -127 72 2 23 40 26 45
28 -62 -41 20 -126 93 -20 -5
29 -25 1 -22 17 -1 52 -11
127 -12 -17 5 -3 -15 -46 5
15 19 -7 127 6 -7 -19 -81
35 22 -32 21 -11 -98 -12 -7
-2 -119 45 55 1 -42 127 -36
1 -35 -2 46 12 64 1 -1
-26 61 -127 -28 68 -117 91 88
-52 83 -91 52 -66 16 9 -10
-107 15 -13 -2 -9 -5 -68 75
40 -45 -19 -53 30 18 37 -127
-76 61 5 28 14 -56 -8 -39
44 4 -28 80 27 34 20 -127
-3 -114 -25 -9 -1 -47 10 -127
45 -71 77 -65 -9 14 29 -33
-8 -12 -44 -20 24 -4 21 23
29 -127 35 -22 -36 22 21 -20
71 -113 0 -32 -24 -12 -17 -10
-35 127 -46 -2 15 8 -69 -38
25 -2 27 -61 -9 25 55 -106
14 -59 86 -86 127 -50 -60 33
00000000: c61e 14f5 03e3 ef7f 1bfb f62e 1d1e 34ce
00000010: 357f 0525 4ff8 fcc4 fe9d ce1a 8202 eb16
00000020: 30c0 0df1 81f4 b10b 0322 03f0 fc1c 12d1
00000030: fedd 1b22 d603 0bfc 1a04 0803 0dda 7feb
00000040: d1a4 24f2 c5ff 2cdd 7f0a 0ca5 28ae fae4
00000050: 2a81 4802 1728 1a2d 1cc2 d714 825d ecfb
00000060: 1de7 01ea 11ff 34f5 7ff4 ef05 fdf1 d205
00000070: 0f13 f97f 06f9 edaf 2316 e015 f59e f4f9
00000080: fe89 2d37 01d6 7fdc 01dd fe2e 0c40 01ff
00000090: e63d 81e4 448b 5b58 cc53 a534 be10 09f6
000000a0: 950f f3fe f7fb bc4b 28d3 edcb 1e12 2581
000000b0: b43d 051c 0ec8 f8d9 2c04 e450 1b22 1481
000000c0: fd8e e7f7 ffd1 0a81 2db9 4dbf f70e 1ddf
000000d0: f8f4 d4ec 18fc 1517 1d81 23ea dc16 15ec
000000e0: 478f 00e0 e8f4 eff6 dd7f d2fe 0f08 bbda
000000f0: 19fe 1bc3 f719 3796 0ec5 56aa 7fce c421

blocks/3/mobile_inverted_conv/point_linear/conv/weight i1 [16, 1, 1, 48]
78 94 20 -91 49 95 -79 -32
-10 22 44 82 -78 -91 -24 -97
106 21 -38 -104 127 0 -50 -20
43 1 -59 12 35 34 -6 -30
36 -5 104 -59 -100 47 26 -42
-13 -76 -7 -26 15 53 -4 -41
-14 59 19 -36 54 15 -76 -68
-28 23 -2 8 58 34 74 81
-39 23 -48 39 -13 0 -106 26
-48 42 71 -73 -127 3 40 -11
-4 -44 10 73 -67 20 27 5
-2 -90 -18 100 54 29 -2 -75
-77 -104 -30 32 59 -38 36 -63
5 -87 127 -30 42 40 1 -8
23 -25 -37 60 13 11 -36 -30
-12 -24 47 58 62 -69 52 32
82 -69 17 92 18 52 21 22
-24 -42 -65 37 109 -38 -56 -7
6 64 36 -16 40 12 -33 33
55 -17 33 43 6 -2 14 37
55 12 -83 -16 -4 7 -31 -10
37 83 -15 -18 -7 78 75 -127
-46 36 -59 -1 -21 -24 24 -68
-18 -51 -79 5 41 2 -6 16
-1 54 -98 87 19 19 97 -15
-3 -18 13 13 26 -4 42 13
42 -127 59 45 37 -122 -42 -25
-27 -72 -6 -10 -18 20 2 -25
-22 -35 9 7 76 30 -11 -9
-47 10 -35 -67 -4 -8 20 93
25 62 -115 67 -7 54 85 116
59 119 -40 36 24 -19 127 -73
00000000: 4e5e 14a5 315f b1e0 f616 2c52 b2a5 e89f
00000010: 6a15 da98 7f00 ceec 2b01 c50c 2322 fae2
00000020: 24fb 68c5 9c2f 1ad6 f3b4 f9e6 0f35 fcd7
00000030: f23b 13dc 360f b4bc e417 fe08 3a22 4a51
00000040: d917 d027 f300 961a d02a 47b7 8103 28f5
00000050: fcd4 0a49 bd14 1b05 fea6 ee64 361d feb5
00000060: b398 e220 3bda 24c1 05a9 7fe2 2a28 01f8
00000070: 17e7 db3c 0d0b dce2 f4e8 2f3a 3ebb 3420
00000080: 52bb 115c 1234 1516 e8d6 bf25 6dda c8f9
00000090: 0640 24f0 280c df21 37ef 212b 06fe 0e25
000000a0: 370c adf0 fc07 e1f6 2553 f1ee f94e 4b81
000000b0: d224 c5ff ebe8 18bc eecd b105 2902 fa10
000000c0: ff36 9e57 1313 61f1 fdee 0d0d 1afc 2a0d
000000d0: 2a81 3b2d 2586 d6e7 e5b8 faf6 ee14 02e7
000000e0: eadd 0907 4c1e f5f7 d10a ddbd fcf8 145d
000000f0: 193e 8d43 f936 5574 3b77 d824 18ed 7fb7

blocks/4/mobile_inverted_conv/depth_conv/conv/weight i1 [1, 7, 7, 48]
-1 5 4 4 0 1 3 1
-1 1 1 0 0 0 -1 -4
-6 -3 0 -1 4 6 4 -2
1 -1 2 5 -10 3 -1 4
-3 -3 3 -7 -1 7 -5 -7
-3 -5 3 3 1 -3 0 3
-7 8 8 3 2 9 4 -10
0 3 1 4 6 9 3 -5
4 1 3 3 9 9 9 -1
0 5 0 11 -1 0 -3 -4
4 10 -3 5 -4 -3 11 4
-2 -3 -14 2 5 5 5 1
11 -4 -6 -6 0 -4 -2 6
1 -4 -5 -3 -6 -4 0 4
-2 -5 1 0 -9 1 -3 2
3 -2 0 -9 5 -5 5 -1
-1 2 7 -3 -5 0 3 0
2 -3 4 -6 -9 1 -3 3
16 -12 -10 -5 -7 -8 -12 14
-11 -3 -9 -1 -5 -9 -8 8
0 -11 -4 7 -14 -11 -10 9
6 -7 4 -12 11 -9 2 7
-4 -11 9 -7 3 6 16 1
2 -11 7 -16 -17 0 -8 12
8 -6 -5 -10 -5 -4 -2 6
-6 -3 0 0 -3 -4 -16 4
-4 -2 -9 6 -7 -12 -5 3
3 -5 -4 -12 3 -1 4 2
0 -1 3 2 0 9 9 6
-9 -8 1 -11 -9 -2 -2 5
-4 0 1 4 1 0 1 -4
3 5 0 -1 8 -1 2 -2
00000000: ff05 0404 0001 0301 ff01 0100 0000 fffc
00000010: fafd 00ff 0406 04fe 01ff 0205 f603 ff04
00000020: fdfd 03f9 ff07 fbf9 fdfb 0303 01fd 0003
00000030: f908 0803 0209 04f6 0003 0104 0609 03fb
00000040: 0401 0303 0909 09ff 0005 000b ff00 fdfc
00000050: 040a fd05 fcfd 0b04 fefd f202 0505 0501
00000060: 0bfc fafa 00fc fe06 01fc fbfd fafc 0004
00000070: fefb 0100 f701 fd02 03fe 00f7 05fb 05ff
00000080: ff02 07fd fb00 0300 02fd 04fa f701 fd03
00000090: 10f4 f6fb f9f8 f40e f5fd f7ff fbf7 f808
000000a0: 00f5 fc07 f2f5 f609 06f9 04f4 0bf7 0207
000000b0: fcf5 09f9 0306 1001 02f5 07f0 ef00 f80c
000000c0: 08fa fbf6 fbfc fe06 fafd 0000 fdfc f004
000000d0: fcfe f706 f9f4 fb03 03fb fcf4 03ff 0402
000000e0: 00ff 0302 0009 0906 f7f8 01f5 f7fe fe05
000000f0: fc00 0104 0100 01fc 0305 00ff 08ff 02fe

blocks/4/mobile_inverted_conv/inverted_bottleneck/conv/weight i1 [48, 1, 1, 16]
-1 52 21 -1 -3 -1 -14 -2
-4 87 -73 -3 -127 -35 -24 60
-2 -18 127 55 -31 -1 35 8
-65 -8 98 15 -10 -105 103 6
0 -127 -41 5 -45 -7 50 -87
4 68 42 29 -26 -67 3 113
-19 127 49 -27 27 -92 7 -114
52 -82 -97 -39 -127 -57 23 -20
20 8 27 16 -1 -60 54 -20
14 78 -107 -24 127 -68 -18 1
7 -17 -46 -26 3 2 43 5
13 -42 45 -127 17 -5 5 -9
20 -29 -90 105 -36 9 -6 -66
-127 -3 -44 -3 -5 -113 100 -9
1 62 -6 36 21 -7 37 -30
1 46 -79 127 30 10 -38 -50
10 -127 10 80 -66 45 -114 -46
-11 57 -7 -12 91 -55 -24 -9
2 -19 19 -54 -17 -4 10 -21
5 6 -9 3 12 11 127 -5
16 -19 -10 21 4 3 -16 -12
24 127 9 76 -127 -3 21 -59
-13 -63 -7 -10 -29 4 9 -20
10 -127 -20 24 40 -40 1 -6
33 45 -11 12 -127 -28 18 14
5 -25 -2 -13 -15 24 -3 -46
78 -33 10 -4 48 -56 103 28
8 -54 -95 26 -48 -69 -49 127
69 -1 -24 -127 7 -1 -40 7
66 5 23 16 6 -56 -29 -4
-10 72 -55 -34 15 -48 127 -22
3 43 43 60 31 -69 -11 99
00000000: ff34 15ff fdff f2fe fc57 b7fd 81dd e83c
00000010: feee 7f37 e1ff 2308 bff8 620f f697 6706
00000020: 0081 d705 d3f9 32a9 0444 2a1d e6bd 0371
00000030: ed7f 31e5 1ba4 078e 34ae 9fd9 81c7 17ec
00000040: 1408 1b10 ffc4 36ec 0e4e 95e8 7fbc ee01
00000050: 07ef d2e6 0302 2b05 0dd6 2d81 11fb 05f7
00000060: 14e3 a669 dc09 fabe 81fd d4fd fb8f 64f7
00000070: 013e fa24 15f9 25e2 012e b17f 1e0a dace
00000080: 0a81 0a50 be2d 8ed2 f539 f9f4 5bc9 e8f7
00000090: 02ed 13ca effc 0aeb 0506 f703 0c0b 7ffb
000000a0: 10ed f615 0403 f0f4 187f 094c 81fd 15c5
000000b0: f3c1 f9f6 e304 09ec 0a81 ec18 28d8 01fa
000000c0: 212d f50c 81e4 120e 05e7 fef3 f118 fdd2
000000d0: 4edf 0afc 30c8 671c 08ca a11a d0bb cf7f
000000e0: 45ff e881 07ff d807 4205 1710 06c8 e3fc
000000f0: f648 c9de 0fd0 7fea 032b 2b3c 1fbb f563

blocks/4/mobile_inverted_conv/point_linear/conv/weight i1 [24, 1, 1, 48]
49 -94 44 -5 -27 -76 -17 -33
-35 -9 16 41 110 39 -18 24
33 -96 105 -41 -22 13 66 -69
21 25 32 -11 13 13 -27 2
-127 25 -38 27 -49 8 -9 42
79 9 -24 -5 -44 14 -8 -75
31 -21 -51 -48 61 19 28 -87
53 -13 0 30 -30 9 3 66
15 -110 -105 53 -57 66 17 54
10 48 83 30 -7 -13 4 -5
15 -17 69 3 -72 -28 -127 35
23 19 -17 -48 7 -2 103 40
13 127 -46 -10 -17 -14 67 14
-15 120 4 9 -5 -16 -52 23
-17 -48 -17 -3 -14 49 15 -41
-10 19 33 6 -1 18 2 -22
-5 4 27 4 -10 -2 -10 16
4 -3 9 2 3 15 -1 -73
89 53 12 127 14 -64 13 3
-41 -76 -85 22 -11 -47 -84 -83
107 -31 -17 -38 -45 31 -5 37
-106 -98 -5 -42 -12 -25 -76 117
-43 -16 11 -23 -13 -70 -38 -32
-53 -73 -16 -9 80 -4 -5 5
-73 -48 -56 4 -47 -112 37 -9
42 -11 -46 30 -64 24 -63 60
45 -31 20 -77 28 22 127 32
14 -64 -6 -10 -6 -30 6 -89
34 -12 29 5 -7 -4 45 -49
3 35 -6 -22 -58 9 -20 -30
49 8 87 60 -29 -13 -18 -127
15 -13 14 20 -46 -56 -29 -41
00000000: 31a2 2cfb e5b4 efdf ddf7 1029 6e27 ee18
00000010: 21a0 69d7 ea0d 42bb 1519 20f5 0d0d e502
00000020: 8119 da1b cf08 f72a 4f09 e8fb d40e f8b5
00000030: 1feb cdd0 3d13 1ca9 35f3 001e e209 0342
00000040: 0f92 9735 c742 1136 0a30 531e f9f3 04fb
00000050: 0fef 4503 b8e4 8123 1713 efd0 07fe 6728
00000060: 0d7f d2f6 eff2 430e f178 0409 fbf0 cc17
00000070: efd0 effd f231 0fd7 f613 2106 ff12 02ea
00000080: fb04 1b04 f6fe f610 04fd 0902 030f ffb7
00000090: 5935 0c7f 0ec0 0d03 d7b4 ab16 f5d1 acad
000000a0: 6be1 efda d31f fb25 969e fbd6 f4e7 b475
000000b0: d5f0 0be9 f3ba dae0 cbb7 f0f7 50fc fb05
000000c0: b7d0 c804 d190 25f7 2af5 d21e c018 c13c
000000d0: 2de1 14b3 1c16 7f20 0ec0 faf6 fae2 06a7
000000e0: 22f4 1d05 f9fc 2dcf 0323 faea c609 ece2
000000f0: 3108 573c e3f3 ee81 0ff3 0e14 d2c8 e3d7

blocks/5/mobile_inverted_conv/depth_conv/conv/weight i1 [1, 3, 3, 144]
-12 -19 -6 18 1 -38 -33 27
-37 -18 -35 -16 6 -8 39 -108
10 7 -21 -9 -29 -20 -4 -5
25 12 -41 8 -10 1 30 -12
-12 -5 79 -9 -32 47 2 11
-23 48 3 40 -21 -33 -4 -19
-9 -16 -4 20 -16 4 -43 -28
30 -13 -13 16 -8 12 -12 -10
-14 -18 20 9 -27 6 -22 -2
-9 3 -32 2 -11 -25 -9 4
15 10 9 -6 82 -21 -42 -9
36 -6 31 -31 25 -13 -11 -78
-38 -19 1 123 -5 1 44 17
4 -60 -85 34 12 -20 -20 120
51 -31 -35 -41 44 23 -32 32
-15 -14 2 -98 -34 18 29 49
-127 -31 -46 -8 -28 -37 -55 89
-21 61 -30 -44 60 9 9 31
-50 -34 108 14 9 -28 -34 -41
31 -19 -23 -28 127 -28 -109 -29
18 -1 -62 92 -58 -45 11 -13
-13 -39 -98 -11 -59 20 127 -16
13 -36 21 -64 3 9 -8 -51
-97 -127 127 -62 -49 -17 -51 -47
29 -42 -7 23 -29 -10 -90 39
127 38 62 2 127 0 15 -10
24 -104 -18 -69 -127 -11 85 46
-7 -83 -75 10 -20 2 -56 99
-25 9 -23 -91 -27 -48 94 127
-69 9 -20 83 107 -53 -20 -127
-127 -2 127 19 68 73 -62 127
16 -86 95 -126 -10 -60 67 -127
00000000: f4ed fa12 01da df1b dbee ddf0 06f8 2794
00000010: 0a07 ebf7 e3ec fcfb 190c d708 f601 1ef4
00000020: f4fb 4ff7 e02f 020b e930 0328 ebdf fced
00000030: f7f0 fc14 f004 d5e4 1ef3 f310 f80c f4f6
00000040: f2ee 1409 e506 eafe f703 e002 f5e7 f704
00000050: 0f0a 09fa 52eb d6f7 24fa 1fe1 19f3 f5b2
00000060: daed 017b fb01 2c11 04c4 ab22 0cec ec78
00000070: 33e1 ddd7 2c17 e020 f1f2 029e de12 1d31
00000080: 81e1 d2f8 e4db c959 eb3d e2d4 3c09 091f
00000090: cede 6c0e 09e4 ded7 1fed e9e4 7fe4 93e3
000000a0: 12ff c25c c6d3 0bf3 f3d9 9ef5 c514 7ff0
000000b0: 0ddc 15c0 0309 f8cd 9f81 7fc2 cfef cdd1
000000c0: 1dd6 f917 e3f6 a627 7f26 3e02 7f00 0ff6
000000d0: 1898 eebb 81f5 552e f9ad b50a ec02 c863
000000e0: e709 e9a5 e5d0 5e7f bb09 ec53 6bcb ec81
000000f0: 81fe 7f13 4449 c27f 10aa 5f82 f6c4 4381

blocks/5/mobile_inverted_conv/inverted_bottleneck/conv/weight i1 [144, 1, 1, 24]
69 -31 -22 24 13 59 58 25
-28 1 -1 50 -27 -39 -3 77
-60 -20 -8 96 -75 35 127 56
-39 127 -29 -37 27 -4 -34 -77
-3 51 -52 15 67 -38 39 21
34 -23 72 79 16 59 25 -55
23 6 -27 12 9 33 27 90
29 9 0 -27 22 28 -21 54
-81 -51 -45 2 50 25 -127 10
98 -11 -2 9 -11 32 -8 -47
82 1 -10 18 -42 5 7 11
2 -5 -11 22 -11 18 -5 -127
-109 37 -1 -17 61 55 17 12
-18 -16 -28 7 -65 -2 9 16
7 -2 10 -1 28 46 4 127
43 55 -44 121 25 36 -127 44
-66 67 14 104 -32 -70 -122 -43
37 -94 -81 -79 -88 -81 -92 21
25 -120 -4 -43 58 127 111 -3
-60 -32 -27 -64 71 19 -54 48
14 -37 92 46 -42 -65 -8 -8
7 -32 -16 -28 18 -11 -55 5
20 -76 20 11 -42 -4 20 127
6 -38 1 -33 -62 -50 20 30
42 0 -31 -53 18 19 -4 127
60 -12 7 22 -77 46 -49 -86
-32 -20 -3 35 -38 100 -72 28
-17 -22 -35 -32 -62 17 -72 -1
-42 3 -21 -55 127 -26 -14 55
34 -107 -16 82 -22 9 25 7
13 62 4 -29 -52 127 44 31
-27 36 -39 -29 -15 -24 31 -52
00000000: 45e1 ea18 0d3b 3a19 e401 ff32 e5d9 fd4d
00000010: c4ec f860 b523 7f38 d97f e3db 1bfc deb3
00000020: fd33 cc0f 43da 2715 22e9 484f 103b 19c9
00000030: 1706 e50c 0921 1b5a 1d09 00e5 161c eb36
00000040: afcd d302 3219 810a 62f5 fe09 f520 f8d1
00000050: 5201 f612 d605 070b 02fb f516 f512 fb81
00000060: 9325 ffef 3d37 110c eef0 e407 bffe 0910
00000070: 07fe 0aff 1c2e 047f 2b37 d479 1924 812c
00000080: be43 0e68 e0ba 86d5 25a2 afb1 a8af a415
00000090: 1988 fcd5 3a7f 6ffd c4e0 e5c0 4713 ca30
000000a0: 0edb 5c2e d6bf f8f8 07e0 f0e4 12f5 c905
000000b0: 14b4 140b d6fc 147f 06da 01df c2ce 141e
000000c0: 2a00 e1cb 1213 fc7f 3cf4 0716 b32e cfaa
000000d0: e0ec fd23 da64 b81c efea dde0 c211 b8ff
000000e0: d603 ebc9 7fe6 f237 2295 f052 ea09 1907
000000f0: 0d3e 04e3 cc7f 2c1f e524 d9e3 f1e8 1fcc
